…
  learning_rate: 5.0e-05
  weight_decay: 1.0e-06
  num_epochs: 100
  positive_weight: 3.0
cnn_output_shape: !!python/object/apply:torch.Size
- !!python/tuple
  - 1
  - 128
  - 180
dataset_name: data/augmented_data/50000_samples_7_pc_0.001_noise_airPLS_12.5_0.57_shift30-5/train_dataset.pkl
cnn_model_info: '==========================================================================================

  Layer (type:depth-idx)                   Output Shape              Param #

  ==========================================================================================

  CNNFeatureExtractor                      [256, 128, 180]           --

  ├─Sequential: 1-1                        --                        --

  │    └─Conv1d: 2-1                       [256, 64, 13007]          384

  │    └─BatchNorm1d: 2-2                  [256, 64, 13007]          128

  │    └─ReLU: 2-3                         [256, 64, 13007]          --

  │    └─MaxPool1d: 2-4                    [256, 64, 6503]           --

  │    └─Dropout: 2-5                      [256, 64, 6503]           --

  │    └─Conv1d: 2-6                       [256, 64, 2167]           20,544

  │    └─BatchNorm1d: 2-7                  [256, 64, 2167]           128

  │    └─ReLU: 2-8                         [256, 64, 2167]           --

  │    └─MaxPool1d: 2-9                    [256, 64, 1083]           --

  │    └─Dropout: 2-10                     [256, 64, 1083]           --

  │    └─Conv1d: 2-11                      [256, 64, 360]            20,544

  │    └─BatchNorm1d: 2-12                 [256, 64, 360]            128

  │    └─ReLU: 2-13                        [256, 64, 360]            --

  │    └─MaxPool1d: 2-14                   [256, 64, 180]            --

  │    └─Dropout: 2-15                     [256, 64, 180]            --

  │    └─Conv1d: 2-16                      [256, 128, 180]           8,320

  ==========================================================================================

  Total params: 50,176

  Trainable params: 50,176

  Non-trainable params: 0

  Total mult-adds (Units.GIGABYTES): 14.95

  ==========================================================================================

  Input size (MB): 39.96

  Forward/backward pass size (MB): 4119.33

  Params size (MB): 0.20

  Estimated Total Size (MB): 4159.49

  =========================================================================================='
encoder_model_info: '===============================================================================================

  Layer (type:depth-idx)                        Output Shape              Param #

  ===============================================================================================

  CrossEncoder                                  [256, 1]                  128

  ├─Linear: 1-1                                 [256, 180, 64]            8,256

  ├─Linear: 1-2                                 [256, 180, 64]            (recursive)

  ├─PositionalEncoding: 1-3                     [256, 363, 64]            --

  │    └─Dropout: 2-1                           [256, 363, 64]            --

  ├─TransformerEncoder: 1-4                     [256, 363, 64]            --

  │    └─ModuleList: 2-2                        --                        --

  │    │    └─TransformerEncoderLayer: 3-1      [256, 363, 64]            281,152

  │    │    └─TransformerEncoderLayer: 3-2      [256, 363, 64]            281,152

  │    │    └─TransformerEncoderLayer: 3-3      [256, 363, 64]            281,152

  │    │    └─TransformerEncoderLayer: 3-4      [256, 363, 64]            281,152

  ├─Linear: 1-5                                 [256, 1]                  129

  ===============================================================================================

  Total params: 1,133,121

  Trainable params: 1,133,121

  Non-trainable params: 0

  Total mult-adds (Units.MEGABYTES): 4.26

  ===============================================================================================

  Input size (MB): 47.19

  Forward/backward pass size (MB): 47.19

  Params size (MB): 0.03
…
